export/baseline_student.onnx (onnx, 352047 bytes, 18 tensors)

backbone.features.1.block.1.fc1.bias f4 [8]
-1.7194443e-09 -2.3166298e-09 -0.00016355385 -1.8774664e-09 -1.2891413e-09 1.7532132e-08 -5.6570957e-09 9.6723e-11
00000000: 9151 ecb0 9532 1fb1 a77f 2bb9 bd04 01b1
00000010: a12d b1b0 9199 9632 5760 c2b1 35b2 d42e

backbone.features.1.block.1.fc2.bias f4 [16]
0.56416994 0.63852715 0.38336658 -1.1417153 -0.70754874 1.3439099 -0.35983306 -0.49417228
0.5689849 -0.34783858 0.6384707 -0.24167167 -0.432094 -0.10764291 0.1665067 -0.35095623
00000000: 716d 103f 8476 233f a048 c43e ba23 92bf
00000010: ea21 35bf 3d05 ac3f 0a3c b8be 2604 fdbe
00000020: ffa8 113f e617 b2be d172 233f c778 77be
00000030: 6d3b ddbe e373 dcbd bb80 2a3e 89b0 b3be

backbone.features.4.block.2.fc1.bias f4 [24]
-2.9211575e-09 -6.3220145e-09 -1.1813039e-09 -4.2175796e-09 -2.133115e-09 -4.7858895e-09 -3.2383856e-09 7.1056134e-09
-2.6545996e-10 -5.92601e-09 0.20611429 -1.9252493e-09 -3.904668e-09 -2.8423386e-08 7.3140827e-10 -3.4446065e-10
-1.8276763e-09 -4.4766733e-09 -1.0233917e-09 -1.2708817e-09 2.3359028e-09 -8.444231e-09 -4.032996e-09 -1.12403364e-10
00000000: 8cbd 48b1 0739 d9b1 705b a2b0 39ea 90b1
00000010: 2896 12b1 2171 a4b1 488a 5eb1 a325 f431
00000020: 2bf0 91af bc9d cbb1 a00f 533e 584d 04b1
00000030: d329 86b1 b027 f4b2 480c 4930 875e bdaf
00000040: a531 fbb0 3cd1 99b1 65a7 8cb0 2dab aeb0
00000050: a385 2031 1f12 11b2 9c92 8ab1 782d f7ae

backbone.features.5.block.2.fc1.bias f4 [64]
-0.007849903 0.28086764 -0.0005562248 0.097515546 0.1325251 0.10881965 0.2171481 0.12993598
-0.1408875 -0.103250846 0.19577524 0.17207965 -0.35322666 -0.08756876 0.10887357 0.020765927
-0.052627247 0.38505122 0.10821868 -0.019788107 0.08362468 0.041559592 0.113914385 0.43970048
0.06879991 0.15636975 0.16974339 0.004710553 0.19976747 -0.045549586 -0.13835071 0.14035535
-0.0817345 -0.016605198 0.113202594 0.10303029 -0.016212063 0.285776 -0.015144895 -0.051134594
0.5731201 0.22587691 0.21563028 0.10285988 0.2935459 0.03608712 -0.09084753 0.026194572
-0.019676438 0.13574345 -0.102079995 0.06916808 0.013829311 0.01917862 0.20712298 0.1312929
-0.03434029 0.0453424 0.53531 0.25586015 0.05785686 0.05693771 -0.019333512 0.14765087
00000000: e19c 00bc e2cd 8f3e 9dcf 11ba 3bb6 c73d
00000010: a9b4 073e d6dc de3d 125c 5e3e f00d 053e
00000020: d044 10be 2e75 d3bd 4e79 483e a635 303e
00000030: 20da b4be 4057 b3bd 1bf9 de3d 4e1d aa3c
00000040: ab8f 57bd 6f25 c53e c1a1 dd3d ab1a a2bc
00000050: 6b43 ab3d 643a 2a3d f24b e93d 6c20 e13e
00000060: f8e6 8c3d 641f 203e 36d1 2d3e fc5a 9a3b
00000070: d88f 4c3e 3492 3abd cfab 0dbe 50b9 0f3e
00000080: 6b64 a7bd a007 88bc c3d6 e73d 8b01 d33d
00000090: 29cf 84bc 3b51 923e 4b22 78bc 8272 51bd
000000a0: 00b8 123f 474c 673e 2fce 5c3e 33a8 d23d
000000b0: a64b 963e 17d0 133d 450e babd 0096 d63c
000000c0: 7b30 a1bc 5500 0b3e 510f d1bd ffa7 8d3d
000000d0: 5694 623c 7b1c 9d3c 0c18 543e a571 063e
000000e0: 67a8 0cbd f4b8 393d 130a 093f 1a00 833e
000000f0: 51fb 6c3d 8437 693d 5061 9ebc ca31 173e

backbone.features.6.block.2.fc1.bias f4 [64]
0.0054203253 0.07781113 -0.05174091 0.21968956 0.14403003 0.16751568 0.016964154 -0.026161114
0.19323859 0.27863526 0.07994621 0.144407 0.12257311 0.08326405 -0.0069712186 -0.034503277
0.020055773 0.21839863 0.36054912 0.3069457 -0.041361373 0.16578664 0.07136491 0.1471811
-0.07124674 0.24205995 0.06893529 0.003608249 0.069041565 0.22709425 -0.14610748 0.03373303
-0.046683196 0.06640693 0.0248033 0.11199059 0.61517346 0.15568954 0.06549406 0.22153664
0.18524648 0.067517124 0.033642992 0.14962326 0.2046888 0.2689134 0.01793822 0.11861813
0.10826673 0.03612146 0.1125929 0.33475214 -0.020040989 -0.16733588 -0.24594347 0.35117224
0.015594687 0.073519476 0.048787273 0.046238516 0.12879863 0.22082685 0.030175881 0.03578078
00000000: fc9c b13b 715b 9f3d 47ee 53bd 4df6 603e
00000010: 9c7c 133e 3b89 2b3e 69f8 8a3c d54f d6bc
00000020: 56e0 453e 48a9 8e3e d7ba a33d 6edf 133e
00000030: 9c07 fb3d 5886 aa3d d26e e4bb 4f53 0dbd
00000040: 014c a43c e4a3 5f3e e599 b83e fd27 9d3e
00000050: 8b6a 29bd f9c3 293e c427 923d a4b6 163e
00000060: d0e9 91bd 90de 773e f22d 8d3d 5f78 6c3b
00000070: aa65 8d3d 658b 683e 339d 15be a52b 0a3d
00000080: e136 3fbd 5b00 883d 4a30 cb3c 535b e53d
00000090: 027c 1d3f 146d 1f3e c021 863d 80da 623e
000000a0: 41b1 3d3e 6b46 8a3d 3ccd 093d d736 193e
000000b0: f199 513e 04af 893e 2df3 923c 10ee f23d
000000c0: f3ba dd3d 19f4 133d 1b97 e63d a264 ab3e
000000d0: 002d a4bc 195a 2bbe 9bd8 7bbe d9cc b33e
000000e0: dc80 7f3c 6191 963d 2ad5 473d 9964 3d3d
000000f0: cae3 033e 6f20 623e 6933 f73c de8e 123d

backbone.features.7.block.2.fc1.bias f4 [32]
1.6006585e-10 -3.8677523e-09 -9.089708e-09 -1.8355921e-07 -2.1508043e-07 8.6880175e-10 -3.6121296e-08 -7.729239e-09
2.635934e-08 0.042579077 -0.000107658576 -2.7661121e-08 0.30968475 2.1199943e-08 1.5020435e-08 0.033271655
-1.7561161e-06 2.0361577e-08 -0.059246738 2.7899032e-08 0.026216194 9.343786e-09 -0.036573026 -4.9815515e-08
-1.8828532e-08 1.2270543e-09 -3.0889797e-08 -8.2685725e-09 -1.8231727e-09 4.3546144e-09 0.047622778 1.7295692e-08
00000000: 88fe 2f2f 1ce5 84b1 f528 1cb2 5f18 45b4
00000010: dcf0 66b4 7dd0 6e30 c923 1bb3 8dc9 04b2
00000020: cd6c e232 6667 2e3d c2c6 e1b8 739b edb2
00000030: 008f 9e3e 2b1b b632 4906 8132 dc47 083d
00000040: b1b3 ebb5 95e7 ae32 b5ac 72bd 9fa6 ef32
00000050: 58c3 d63c 6886 2032 99cd 15bd bdf4 55b3
00000060: 61bc a1b2 23a5 a830 b1ab 04b3 910d 0eb2
00000070: 3093 fab0 989f 9531 1a10 433d a191 9432

backbone.features.8.block.2.fc1.bias f4 [40]
0.17637882 0.08579338 0.3237305 0.5099674 0.08848903 0.23602335 0.12447315 0.19748941
0.11554736 -0.039525293 0.066043705 0.12881196 0.35188526 0.25251958 0.30791557 0.2662031
0.07576459 0.27815735 0.2604257 0.027109973 0.12733807 0.20797588 0.41032174 0.52738994
0.29088342 0.09934729 0.27943566 0.28095642 0.4404144 0.059363678 0.2404554 0.18680207
0.4780843 0.082775414 0.1425788 0.34047005 0.25918195 0.3963745 0.36084265 0.21654512
00000000: a69c 343e 71b4 af3d 01c0 a53e 398d 023f
00000010: bd39 b53d 1bb0 713e c7eb fe3d aa3a 4a3e
00000020: 18a4 ec3d 46e5 21bd ec41 873d 48e7 033e
00000030: 4e2a b43e 3f4a 813e 1ca7 9d3e c64b 883e
00000040: 772a 9b3d a46a 8e3e 8456 853e bc15 de3c
00000050: e964 023e a1f7 543e b115 d23e 0703 073f
00000060: acee 943e 9876 cb3d 3112 8f3e 85d9 8f3e
00000070: ff7d e13e 5427 733d f139 763e 0b49 3f3e
00000080: 77c7 f43e 2886 a93d 2d00 123e 1752 ae3e
00000090: 7fb3 843e 99f1 ca3e 5ec0 b83e 01be 5d3e

backbone.classifier.3.bias f4 [2]
-0.034166925 -0.07256263
00000000: 9ef2 0bbd b79b 94bd

backbone.features.0.0.weight_bias f4 [16]
4.2297354 2.560391 2.427054 -2.3224037 2.7844048 2.7467637 0.2329789 -0.034389347
2.6770496 2.6968656 3.0451133 -0.9901216 0.32032084 0.5029563 1.1149429 -2.8852525
00000000: fe59 8740 72dd 2340 da54 1b40 43a2 14c0
00000010: b033 3240 faca 2f40 0592 6e3e d8db 0cbd
00000020: c854 2b40 7299 2c40 23e3 4240 9c78 7dbf
00000030: 1801 a43e bec1 003f 73b6 8e3f faa7 38c0

backbone.features.1.block.0.0.weight_bias f4 [16]
0.33044004 1.7593167 3.282618 0.27295688 0.16768779 3.1114967 0.1792568 0.6474652
1.9467257 0.33849937 0.28139627 0.15831676 0.29189932 0.22068898 0.13265334 1.6735498
00000000: 702f a93e 4a31 e13f 6a16 5240 01c1 8b3e
00000010: 59b6 2b3e c322 4740 188f 373e 48c0 253f
00000020: 4f2e f93f ca4f ad3e 2c13 903e ca1d 223e
00000030: d473 953e 4bfc 613e 47d6 073e e136 d63f

backbone.features.1.block.2.0.weight_bias f4 [16]
5.505203 -6.787766 -3.8720229 -2.5130396 -0.98314106 0.25378123 -5.2619696 -0.43761855
-9.814973 -3.6884894 0.4220044 -2.3618789 -3.3162217 -2.361474 -1.0201024 3.2086885
00000000: 9f2a b040 6135 d9c0 39cf 77c0 a4d5 20c0
00000010: 22af 7bbf 9def 813e 0e62 a8c0 8a0f e0be
00000020: 210a 1dc1 3610 6cc0 f610 d83e 0629 17c0
00000030: fa3c 54c0 6422 17c0 b792 82bf 275b 4d40

backbone.features.2.block.2.0.weight_bias f4 [24]
-0.5086712 -1.2124178 3.855136 -0.8142164 -1.5959865 -2.501634 1.5941802 5.565986
-3.119273 -1.4993418 -0.077350326 1.7277778 0.23549142 0.7682377 2.603482 1.8962976
2.1913276 0.19354557 2.1236968 2.1907072 -1.3589543 -0.8716142 0.095306985 -3.3289847
00000000: 4738 02bf 8230 9bbf 8cba 7640 7c70 50bf
00000010: 4949 ccbf c51a 20c0 190e cc3f 8f1c b240
00000020: 2ba2 47c0 6fea bfbf d969 9ebd d327 dd3f
00000030: aa24 713e 3aab 443f 739f 2640 e1b9 f23f
00000040: b63e 0c40 cf30 463e a6ea 0740 8c34 0c40
00000050: 37f2 adbf 1c22 5fbf 4f30 c33d 160e 55c0

backbone.features.3.block.2.0.weight_bias f4 [24]
-4.490678 0.52774376 1.624888 0.51218975 0.690902 3.4099622 -0.6855786 2.3810148
-0.45042568 -0.19157119 0.18266784 -0.7420027 -1.4258878 -2.0254142 -1.153548 1.2497917
-1.9921255 -3.3868608 0.5389289 -2.9567637 -0.43615746 0.3088246 1.6677545 -0.3077227
00000000: a2b3 8fc0 371a 073f 54fc cf3f de1e 033f
00000010: f4de 303f d23c 5a40 1482 2fbf 8c62 1840
00000020: 329e e6be 3d2b 44be 470d 3b3e e4f3 3dbf
00000030: 7e83 b6bf 63a0 01c0 76a7 93bf 2df9 9f3f
00000040: f8fd febf 54c2 58c0 3ff7 093f 9e3b 3dc0
00000050: 0850 dfbe 421e 9e3e fb78 d53f d48d 9dbe

backbone.features.4.block.3.0.weight_bias f4 [40]
0.08152335 -2.3490596 -0.343628 -2.3320637 0.7631665 1.2816654 -0.6766066 -0.6311026
1.9113611 0.5348683 0.9066861 1.323374 -0.51541156 -3.1699054 2.1592736 -0.097200155
2.3978481 -5.100032 3.6068306 0.55020446 -0.24730094 -0.81622565 0.5389187 -1.95924
0.549278 0.67020243 1.4727437 -0.7744458 -1.1624401 3.1663103 0.31431696 -0.5124355
-0.42152876 1.2111619 -2.873798 -0.1018841 -1.863949 1.4435586 -0.942274 -0.81257766
00000000: b7f5 a63d fe56 16c0 02f0 afbe 8840 15c0
00000010: e15e 433f 9d0d a43f 1736 2dbf f18f 21bf
00000020: 7ba7 f43f 21ed 083f 951c 683f 5264 a93f
00000030: 03f2 03bf bbdf 4ac0 8a31 0a40 e010 c7bd
00000040: 5876 1940 7633 a3c0 50d6 6640 33da 0c3f
00000050: 753c 7dbe 2af4 50bf 93f6 093f 60c8 fabf
00000060: 7c9d 0c3f 6392 2b3f de82 bc3f 1442 46bf
00000070: d6ca 94bf d4a4 4a40 27ee a03e f92e 03bf
00000080: 9ed2 d7be 5a07 9b3f 4eec 37c0 9ca8 d0bd
00000090: e195 eebf 87c6 b83f de38 71bf 1705 50bf

backbone.features.5.block.3.0.weight_bias f4 [40]
-0.52233464 0.91100836 -0.13165526 0.5726991 0.26739806 -0.4070339 -0.42968044 -0.8758015
-0.78222007 0.016828867 0.14467317 -0.43759337 0.46280313 -0.95015174 0.7772866 1.6878982
0.14474085 0.2710896 0.13649468 -0.43314755 -0.049411513 -0.031461746 -0.45600846 0.31157735
-0.6173613 -1.4197568 2.3814225 1.1046387 -0.07321742 0.94046015 0.25797015 0.23395446
-0.63070947 0.26881495 -1.1246955 0.89600307 0.39367133 -1.0284472 0.23424366 1.0968813
00000000: b9b7 05bf d837 693f a3d0 06be 699c 123f
00000010: 66e8 883e bf66 d0be 13ff dbbe 8734 60bf
00000020: 933f 48bf b1dc 893c 3425 143e 3d0c e0be
00000030: 88f4 ec3e 253d 73bf 41fc 463f 0c0d d83f
00000040: f236 143e 42cc 8a3e 43c5 0b3e 84c5 ddbe
00000050: ba63 4abd 08de 00bd f179 e9be 1187 9f3e
00000060: 640b 1ebf 97ba b5bf 3a69 1840 cd64 8d3f
00000070: 04f3 95bd ffc1 703f aa14 843e c291 6f3e
00000080: 2d76 21bf 1da2 893e 06f6 8fbf 7560 653f
00000090: 4a8f c93e 28a4 83bf 92dd 6f3e 9b66 8c3f

backbone.features.6.block.3.0.weight_bias f4 [40]
4.64712 -0.17496492 -1.3790973 -0.71514285 -0.3701934 -0.3760455 0.46465456 -1.2224101
-0.42885587 -0.34270668 -0.70203716 -0.024133781 0.34601012 -1.0105405 0.5497502 0.60563743
-0.43296254 -0.25510544 -2.4447825 -0.7537956 1.7812673 0.7173739 1.8101652 -1.3231379
-0.020874618 0.85047925 3.6123214 0.735497 3.9373147 1.2370651 -1.1049838 -0.61959106
0.28615656 2.3805256 -1.255368 1.2643654 0.09474135 -1.62727 -0.18345448 -1.1679726
00000000: 35b5 9440 012a 33be 4386 b0bf 9a13 37bf
00000010: fd89 bdbe 0989 c0be 34e7 ed3e ef77 9cbf
00000020: ff92 dbbe 4077 afbe b5b8 33bf 35b4 c5bc
00000030: 3d28 b13e 6459 81bf 6ebc 0c3f 0e0b 1b3f
00000040: 44ad ddbe 2e9d 82be 5177 1cc0 c0f8 40bf
00000050: 9100 e43f d1a5 373f 7eb3 e73f 955c a9bf
00000060: 3f01 abbc 02b9 593f 4630 6740 8849 3c3f
00000070: f7fc 7b40 2658 9e3f 1c70 8dbf 859d 1ebf
00000080: 1d83 923e 885a 1840 e6af a0bf bad6 a13f
00000090: c107 c23d 624a d0bf 7edb 3bbe 2080 95bf

backbone.features.7.block.3.0.weight_bias f4 [48]
0.16759455 -0.28106388 0.26563847 -2.0087492 -0.6031708 -0.32654625 -0.08839166 -0.78550225
2.5718677 -0.012572996 -0.43349937 0.7402689 -3.4350636 0.22143617 0.19350366 0.1383454
-0.7088573 -0.84397817 -0.91455317 -0.11980544 -1.3038013 1.1275121 -0.6334186 -0.42127293
0.732948 0.5310514 0.90454316 0.48663 -1.2626467 -0.055780485 -0.13358958 -1.5010791
0.13728684 -1.0872025 -0.2657843 0.7903035 -1.570481 -1.3652421 1.0769438 0.79160905
0.93068564 -0.46776822 0.23145689 -0.86234343 -0.91361797 0.18447627 -1.347731 -0.5564415
00000000: e89d 2b3e 9be7 8fbe c401 883e 598f 00c0
00000010: 6769 1abf 1231 a7be b006 b5bd ad16 49bf
00000020: 7b99 2440 f8fe 4dbc a1f3 ddbe 4382 3d3f
00000030: 15d8 5bc0 2ac0 623e d325 463e 6baa 0d3e
00000040: ac77 35bf f40e 58bf 2820 6abf 8e5c f5bd
00000050: f6e2 a6bf 5152 903f b927 22bf 16b1 d7be
00000060: 7ba2 3b3f fcf2 073f 2490 673f 9127 f93e
00000070: 689e a1bf 147a 64bd b5cb 08be 5c23 c0bf
00000080: ec94 0c3e 7429 8bbf e114 88be 5551 4a3f
00000090: 8505 c9bf 41c0 aebf 4bd9 893f e4a6 4a3f
000000a0: 6a41 6e3f 517f efbe 0903 6d3e 8ac2 5cbf
000000b0: dee2 69bf 59e7 3c3e 7382 acbf f372 0ebf

backbone.features.8.block.3.0.weight_bias f4 [48]
1.9335252 -0.088488884 -0.5115309 0.57197803 -1.3558824 0.6004583 -0.2689855 -0.4589768
2.2529209 -0.1579685 0.015464607 0.66435874 -0.22369474 -1.0750592 -0.21319549 0.31471798
-0.41885823 0.26054767 0.16682307 0.16853192 -0.14176832 -0.7328332 0.34829032 0.13324726
0.57968026 -0.27198055 0.0070732734 0.17106201 1.0124987 0.09860404 0.1611217 0.29338795
0.20430285 -0.46769863 -0.1766786 -0.27665994 -1.9306585 0.05597653 0.18284476 0.7280446
0.91795516 0.5944643 0.09822601 0.43746597 1.4855349 0.21771358 0.2665941 0.19786158
00000000: c17d f73f a939 b5bd b0f3 02bf 276d 123f
00000010: 8e8d adbf a3b7 193f 78b8 89be 02ff eabe
00000020: db2f 1040 7fc2 21be 435f 7d3c 6a13 2a3f
00000030: 3c10 65be 8a9b 89bf eb4f 5abe b722 a13e
00000040: 9674 d6be 8166 853e abd3 2a3e a293 2c3e
00000050: b72b 11be f59a 3bbf 1c53 b23e f871 083e
00000060: ed65 143f 0941 8bbe ebc6 e73b e12a 2f3e
00000070: 8f99 813f eaf0 c93d 16fd 243e f236 963e
00000080: c434 513e 3276 efbe 3ceb 34be 5fa6 8dbe
00000090: d11f f7bf a547 653d a83b 3b3e 2261 3a3f
000000a0: 1cff 6a3f d02e 183f b82a c93d 8afb df3e
000000b0: 0226 be3f 4ff0 5e3e 067f 883e 3a9c 4a3e
